code/outputs_direct/direct_pinn_model.pt (torch, 677593 bytes, 8 tensors)

network.0.weight f4 [256, 2]
00000000: 3580 533e 2a4e 9d3e f7a5 3dbe 4857 58bd
00000010: 3180 edbd 7dec ddbe 17c6 a9bc e8c6 cf3c
00000020: c195 b7bd aa5a d1bc a830 35bd 4a25 bd39
00000030: 297d c23c d971 953a ec21 dfbd 9cd5 64bd
00000040: 370c 67bd 11c5 b43c d179 e33b 535a e03a
00000050: 4d7b 213d ef8e e73c bc0c 0fbd 0145 63bc
00000060: 6258 d33c 875f a13c 78ca f63b f737 99bb
00000070: d11a 37be d873 79bc 0603 06bc 2864 a4bc
00000080: a2c8 683d d35a 313d bcbe 063e 1333 3b3d
00000090: 1f0d 3f3e b5e4 9e3d f222 07bd ad35 8f3c
000000a0: 6816 13bc ea3d 8a3e 80fb 7d3d 5bbb ce3a
000000b0: 61d7 4abe b21c 98bd 0891 963d 3dba d73c
000000c0: b765 33be ef02 70bd 66d6 bd3c e9c9 05bd
000000d0: deca 99bd 52c9 d0bb c315 1f3d f696 993a
000000e0: d5d8 debd 7bfa 34bd 97c0 26be 84f1 40bd
000000f0: 3543 debd 34f1 5cbd ab49 223e e7c2 a33d
00000100: d05b 60bb 9e29 0ebc 7af7 563e 1fc3 d33c
00000110: 88c5 183e 9948 343d 181a 42be 5f06 97bd
00000120: 1e08 27bd 2650 c4ba bf6b 2c3e 0de4 733d
00000130: 74c6 113e 1eea 853d c5ec 193e 46f4 1a3d
00000140: f85d 693d 912b b53c bc84 57bd 4882 61bd
00000150: 38a7 923d 8a8f c53c f1ac 99bd d419 52bb
00000160: 7742 0f3d d510 443c 95fa 39be d722 c4be
00000170: 899b 0fbe 24f3 ccbc 25b1 da3e 438f 873e
00000180: 2f35 9fbd da0f 32bd 1ff5 07bd 41a9 75bb
00000190: 9484 81bd 9b45 91b9 61be eebd 7e89 b5bb
000001a0: fd7b f93c dff4 9abb 8e02 4fbd edde ffbc
000001b0: 02c2 dbbc 28fd b03e f9c6 2ebc 2354 36bc
000001c0: a3a0 4f3e a29f 67bb 12e8 3abd f255 b4b9
000001d0: 526b d13d fa34 113d 9bd9 413e f4f6 cb3c
000001e0: f59c f23d bac0 033e aa9c c33d 33ce 003d
000001f0: 7032 0a3e dce9 333d fc07 ecbd 02ff 19bd
00000200: b84c 3cbe 53eb a5bd bf10 313c 3ec3 edba
00000210: c7c6 33bd e0d8 c4bb c8ba f8bd 89e4 50bd
00000220: 58c1 2b3e d878 5d3d 7aba 5c3d e9b0 783c
00000230: 55fa 42be 583f 76be 304f debd f0e8 0bbd
00000240: 8566 b4bd 5d2c 33bd 2888 be3d 65e1 433d
00000250: 7a81 a73d 8676 063d 408b 103e 61bd a53e
00000260: 3333 0f3e 04dc 383d 6991 03bd 1feb 8eba
00000270: d21b d3bb 5ddc b4bb 3ac5 24be 9ad3 b9bc
00000280: b008 c73d e5c9 953c aa5e 233d 4d35 193d
00000290: ee29 7cbd d1e2 f0bc fc91 e73d 45fb 563d
000002a0: ea17 1d3e 1ba8 893c c40c 97bc 4408 5537
000002b0: e433 4a3e d9d2 973d c56c 6dbd ccb8 00bc
000002c0: 1e9b 61bc 06e2 1a3c a6c8 853d b5e1 3b3d
000002d0: 4f5b edbd 1ca1 18bd 84b1 023d 31ff cc3c
000002e0: e6a0 0c3e 30cb 833d e892 0bbd fc55 a7bc
000002f0: 68f0 debc 8e23 a5bc 1fb5 c3bc a7e6 9f3a
00000300: 6831 a7bd f44d 66bc 7a93 b7bd 9a3e 02bd
00000310: 1beb a0bd 78ca 2cbd 20b0 d03c 0528 9e3b
00000320: bf06 8ebd 3291 08bc 8443 9ebc 61c4 bcba
00000330: 15e4 413e cf7e 983c 1fe7 4b3e 6787 853d
00000340: 3b7e 7f3d 275b 2ebb a12e 09be 16f2 6dbc
00000350: 8a89 edbd 4dd4 f6bc 5769 ef3d 13aa 3f3d
00000360: 80a8 553d 370d a5bb b8e8 303c 9c1a 123a
00000370: 6530 26be 4de8 73bd 7fe5 2bbd 13ad 12bd
00000380: b536 06be 3ce9 d5bc 6b9b f33c f9a7 02bc
00000390: d342 f8bc 21e5 68bc 1f44 993d 7874 373d
000003a0: 003a a9bd a9c1 2dbc 2ad9 0cbe a256 5fbd
000003b0: 1666 22bd 16fe 99b9 f4fd e33d afd4 403d
000003c0: 226c 293d 1586 ca38 e24c 0d3b 73ab 27bc
000003d0: a3dd 473e e36f 983d 8a03 293d bc77 043d
000003e0: 84dd 663d abda 333d 3b12 793d 0fb2 c53e
000003f0: 547d 553d 5586 753c fb2a 953e 6421 a03e
0.20654376 0.30723697 -0.18520342 -0.052817613 -0.11596716 -0.4334449 -0.02072434 0.0253634
-0.0896411 -0.025555927 -0.044235855 0.00036076672 0.023741322 0.0011401727 -0.10895142 -0.055867776
-0.056408133 0.022066625 0.006942012 0.0017116762 0.03942423 0.028266398 -0.034924254 -0.013871432
0.02579898 0.019698871 0.0075314604 -0.004675861 -0.17881323 -0.015225373 -0.008179432 -0.02006729
0.056831963 0.043299507 0.13158697 0.045703005 0.18657349 0.07758466 -0.03299231 0.01748165
-0.00897751 0.27000362 0.062007427 0.0015772389 -0.19808723 -0.07427348 0.07351881 0.026333923
-0.1751927 -0.058596548 0.023173522 -0.03266326 -0.07509397 -0.0063716555 0.038839113 0.0011717963
-0.10881201 -0.04418419 -0.16284405 -0.047105327 -0.108526625 -0.053940967 0.15848415 0.07996159
-0.0034234412 -0.0086769145 0.20992842 0.025849877 0.14919102 0.044014547 -0.18955266 -0.07374262
-0.040779226 -0.0014977499 0.16837977 0.059543658 0.1423586 0.06538795 0.15031727 0.037830614
0.05697438 0.0221155 -0.05261682 -0.055055887 0.07160801 0.024116296 -0.07503689 -0.0032058852
0.034975495 0.011966904 -0.18161996 -0.3830783 -0.14024176 -0.025018282 0.42713276 0.26476488
-0.07773816 -0.04347215 -0.03319275 -0.0037484916 -0.063241154 -0.00027708415 -0.11657406 -0.005540072
0.03045463 -0.004728898 -0.050539546 -0.031234229 -0.026825909 0.34568143 -0.010667556 -0.011128458
0.20276122 -0.0035342951 -0.045631476 -0.0003439631 0.10225548 0.035450913 0.18930666 0.02489803
0.118463434 0.12866488 0.09551366 0.031446647 0.13495803 0.043924198 -0.115249604 -0.03759671
-0.18388641 -0.08101525 0.010807215 -0.0018139852 -0.04389074 -0.006007299 -0.12145001 -0.050999198
0.16772974 0.054070324 0.053888775 0.015178897 -0.19040807 -0.24047601 -0.108549476 -0.034157693
-0.088086165 -0.04374348 0.093033135 0.047822375 0.081789926 0.032827877 0.1411562 0.32371047
0.13984375 0.0451317 -0.032121096 -0.0010903812 -0.0064425254 -0.0055194334 -0.16090861 -0.022683907
0.09718454 0.018284747 0.0398852 0.037404347 -0.061563425 -0.02940503 0.11307141 0.052485723
0.15341154 0.016803792 -0.018438704 1.2697714e-05 0.19746357 0.07413263 -0.05796506 -0.007856559
-0.013769893 0.009453302 0.06532411 0.045869548 -0.11589681 -0.03726302 0.031907573 0.025024028
0.13733253 0.06435239 -0.034075648 -0.020426743 -0.027214244 -0.020158555 -0.023890076 0.0012199477
-0.0816372 -0.014056671 -0.08963676 -0.031797983 -0.07857343 -0.042185277 0.025474608 0.004826548
-0.069348805 -0.0083353985 -0.019319303 -0.0014401787 0.18934663 0.018615155 0.19912384 0.065199666
0.062376242 -0.0026604624 -0.13396694 -0.01452305 -0.11598499 -0.03013053 0.11690014 0.046793055
0.052162647 -0.0050369757 0.010797672 0.0005573423 -0.16229399 -0.05954771 -0.04196691 -0.035809588
-0.13106807 -0.026112191 0.029737195 -0.007974618 -0.030305302 -0.014214785 0.07483696 0.044788808
-0.08263016 -0.010605254 -0.13754717 -0.05452598 -0.039648138 -0.00029371743 0.11132422 0.04707783
0.04136289 9.657085e-05 0.0021560718 -0.010233748 0.19518141 0.07443216 0.04126314 0.03234075
0.056363598 0.04390971 0.0608084 0.3861241 0.052121475 0.0149856405 0.29134354 0.31275475

network.0.bias f4 [256]
00000000: e50c 123e 4a99 5dbd ef8d 2ebe c29b ad3d
00000010: dd2b 47bd d1cf 243d 2a9f d0bc 3df5 99bd
00000020: b5d6 b33d 3b7c 5aba a805 983d f525 28bd
00000030: ffaf 393d bcdd e9bc 624b 26bd a3ce a2bd
00000040: 59af b33d d195 203d 0881 943d c4b5 903d
00000050: 3dd6 ee3d 2796 48bd 4051 9ebd f002 723d
00000060: c964 86bd fb23 a0bd e4bd 5d3c 51a0 f7bc
00000070: e94d 6dbd c341 09bd 56a3 aabd 03c3 be3d
00000080: 6e8e 13bd 1664 293d a396 903d 1f22 c0bd
00000090: 9d9b f53c bdba 8a3d 740c b93d 8761 3f3d
000000a0: 5be2 9c3c 7f3f b1bd c041 e23c 584b 593d
000000b0: 57f1 963c 8c4c 36be 9bb9 23bd e888 7a3e
000000c0: de1e 6dbd a275 493c 99d7 763d 24cb 693d
000000d0: 099d 35bd 924e afbd 365e 503d 153e 3abd
000000e0: e82c fa3c 2fa8 283d 0b88 8f3d 1201 a03d
000000f0: a567 4f3d c9ac 633d 4cee e33c e98d 4cbd
00000100: 22aa cebd c65c 9cbc 0304 08bd f99b c8bd
00000110: 59c6 ac3d 6b3e dc3c cbdc 1bbe 512f 8bbd
00000120: e6dc cbbc e2a8 643d a603 a43d 4b94 433e
00000130: ecdf 973d 6b54 c03c 91c0 acbc 4681 25bd
00000140: e52f 463d aa08 d93d 7653 7cbd f989 903d
00000150: 6f3f 0a3d af44 1c3c 3312 c73d 5882 413c
00000160: d8fc 453d 43c7 8e3d 1e77 6bbd 55bc 8b3d
00000170: 4320 913d 748b acbc c7cd 5fbd 61af e23c
00000180: 0f6a ea3b 5b19 82bd f60c 83bd 4d06 cfbb
00000190: 9c98 b1bc 8ec3 8a3c 7311 283d 7167 893d
000001a0: 4b76 92bd 598f 4bbd f965 58bd ac22 a53d
000001b0: b5ca 72bd 5974 37bc f86e a7bd 5217 aebd
000001c0: f3d0 b4bc 340d 68bd 9e5b fbbc 51da 9c3d
000001d0: 1d2c e3ba 26ae 7bbd 5a31 193d 61b8 103d
000001e0: 8909 19bd cda2 4fbd 815a e43d 78d8 073d
000001f0: f2a3 613d f726 8f3d 7f4e 203d 85d3 3a3e
00000200: 8543 00bd 8c90 8c3d bab3 71bc b76c fdbd
00000210: eeb5 c53c 0595 bf3d 743e 0f3c cd7b e9bc
00000220: 3bca 953b cd7b 9dbd 1150 67bd f1f1 70bd
00000230: 4785 64bd 8e81 543c 389a 433d 76b6 27bd
00000240: 14f9 95bd 45ac 96bd d166 5ebc e332 903d
00000250: e326 ab3d adef 58bc bc8f 8abd a672 a6bd
00000260: ff0a 293d 07a5 803d e857 633d dbe1 1a3d
00000270: 684c 9e3d 5759 b53d 228e 6d3c 5256 853d
00000280: 4a2a b73d 3aaa 963d 0885 b13d 9987 e73c
00000290: 5a08 90bd 9e19 b53d 9cd7 bcbd 89be 923d
000002a0: 5e45 083d c323 7a3d 4cd3 0dbd a947 a93d
000002b0: 5952 783d ba2d 1fbd 67a0 60b9 9c52 c0bc
000002c0: 4b32 c13c 3c4c ac3c d73b 6e3d b9fe 753d
000002d0: 119f cf3c 0937 febd 12a3 a13d d8d1 683d
000002e0: ffc7 4fbd f82a df3c 317e 01bd 2468 023d
000002f0: 185f 3bbc e826 4f3d 325d 693d f11f 9a3d
00000300: fdc2 1bbc cbb2 89bd b127 7ebd 346d fd3b
00000310: 1519 863d d54e 1d3d 9f6a 563a 5c29 a9bd
00000320: 7203 7a3d eb6e 38be f4e9 863d 71a6 62bc
00000330: 15bf d23c d8d2 c0bb fc74 893c 67b3 b0bd
00000340: 95b2 9fbc 2d82 9c3c f8ad 2a3d 4bf2 e0bc
00000350: df23 3dbd 8e6e ba3a 43b7 8cbd f5f0 583e
00000360: 33f2 9fbc 9968 373c 50b3 de3c e919 d93c
00000370: 527a 88bd 5a89 21bd e2e6 80bc a673 2ebd
00000380: 912f 02be a827 273d a6d3 1a3a 7236 c33c
00000390: bbd7 8ebb 099c 893d abe9 9f3d 808e 11bb
000003a0: 4f9a 0e3d 01ca 12bd 7991 bbbd 2d9d b13c
000003b0: dcbb 733d 6140 e3bc 655b 85bd d087 7abd
000003c0: 46e6 0fbe 346d 353d 5fb8 9f3d 3df0 90bd
000003d0: 956f b7bb 936b bd3d 27b3 273e 554c 213d
000003e0: c4b2 413d 93ba cc3d cf3d afbd 406c 27bd
000003f0: 2285 433e 37ce 923d 8ceb ae3c bf00 e23d
0.14262731 -0.054101266 -0.17046331 0.08476974 -0.048625816 0.04023725 -0.02546652 -0.075174786
0.087811865 -0.0008334552 0.07422954 -0.041051824 0.04533386 -0.028548114 -0.040599234 -0.07949569
0.08773679 0.039205376 0.07251173 0.07065919 0.116619565 -0.04897132 -0.07730341 0.059084833
-0.06562192 -0.07819363 0.013534043 -0.030227812 -0.05793563 -0.03350998 -0.08331935 0.09314539
-0.036024503 0.041355215 0.07059982 -0.09381508 0.029981429 0.06773899 0.09035578 0.04672387
0.019150903 -0.08654689 0.027619243 0.05305037 0.018425627 -0.17802638 -0.03997193 0.24466288
-0.057890765 0.012296112 0.060264204 0.057078496 -0.044339214 -0.08559908 0.050871097 -0.045469362
0.030538991 0.041176017 0.0700837 0.07812704 0.050635953 0.055584703 0.02782359 -0.049940024
-0.10091044 -0.019087207 -0.03320695 -0.097953744 0.08436269 0.026885232 -0.15220945 -0.06796134
-0.024885606 0.05582512 0.080085084 0.19099538 0.074157566 0.023477754 -0.021087917 -0.040406488
0.04838552 0.10597356 -0.061603032 0.07057566 0.0337519 0.00953786 0.09720268 0.0118108615
0.048336834 0.069716 -0.057486646 0.06823031 0.070862316 -0.02106259 -0.054639604 0.027671518
0.0071537565 -0.063524924 -0.063989565 -0.00631789 -0.021679215 0.01693895 0.041032266 0.06709183
-0.07151469 -0.049697254 -0.052831624 0.08063254 -0.059275348 -0.011197173 -0.081754625 -0.08500542
-0.022072291 -0.056653216 -0.030683335 0.07658828 -0.0017331872 -0.061445378 0.03740058 0.035332087
-0.03736261 -0.05069237 0.11150075 0.033165425 0.05508799 0.06989854 0.03913736 0.18244751
-0.03131439 0.06863508 -0.014752323 -0.12374251 0.024134602 0.09354595 0.008742917 -0.028501416
0.004571227 -0.07689629 -0.05647284 -0.058824483 -0.055791166 0.012970341 0.047754496 -0.040945493
-0.073228985 -0.073570766 -0.013574318 0.07040956 0.083570264 -0.013240737 -0.067656964 -0.08127336
0.041270252 0.062814765 0.055503756 0.03781305 0.07729417 0.08854931 0.014499219 0.06510605
0.08943613 0.07356687 0.08667952 0.0282629 -0.07032843 0.08842777 -0.09220812 0.07165248
0.03326928 0.06106926 -0.034625337 0.08265621 0.060625408 -0.038861968 -0.00021422059 -0.023476891
0.023583552 0.021032445 0.058162536 0.060057376 0.025344403 -0.12412841 0.07892431 0.056840748
-0.05072784 0.027242169 -0.031614486 0.031837597 -0.011436246 0.050574213 0.056973644 0.075256236
-0.009506938 -0.06723555 -0.06204957 0.0077339653 0.06547753 0.03840526 0.000817934 -0.08259842
0.061038442 -0.18011062 0.06587592 -0.013833628 0.02572588 -0.0058845095 0.016779415 -0.08627968
-0.019494334 0.019105041 0.041669816 -0.027459284 -0.046176787 0.0014223622 -0.06870892 0.21185668
-0.01952467 0.011194372 0.027185112 0.026501613 -0.06663956 -0.03943763 -0.015735094 -0.04259076
-0.12713458 0.040809304 0.0005906172 0.023829672 -0.004359213 0.067192145 0.078082405 -0.002221018
0.03481513 -0.035837177 -0.09158606 0.021681393 0.05950533 -0.02774066 -0.06511573 -0.061164677
-0.14052686 0.044293597 0.07798838 -0.07077072 -0.0055980184 0.09249034 0.16376935 0.039379437
0.047289625 0.09996524 -0.08556711 -0.04087472 0.19093755 0.071682386 0.021352552 0.110352986

network.2.weight f4 [256, 256]
00000000: 15e9 453c 50c6 7d3d 39c1 07be 34b6 04be
00000010: 32f0 ab3d bca5 9bbc c0a0 20bc eafa 033d
00000020: 0168 ecbc 0fb4 36bd cb30 2cbd da62 cabc
00000030: 0417 173c 7f5d df3c f0c2 0dbe a7df 713d
00000040: f7f1 503d 8950 93bd 6226 0abe f936 24bd
00000050: 9922 6c3d a770 373d 33cc d0bc c786 e33d
00000060: 4d4d 11be b1a5 3ebc 0dc3 90bd 04ab 8c3c
00000070: 77e1 d23b f751 ae3d 4f32 02bd 113c 0dbd
00000080: b6b5 ec3d 29ef e03d 80c8 62bd 9e1d 063e
00000090: d976 143c 52a4 bc3b 2092 e2bc 072b 5d3d
000000a0: f303 813d 1211 1a3d 79e2 d2bd f7a8 d63d
000000b0: 7f93 24bd ca9f 51bd 7124 2c3d 2e68 073e
000000c0: 8add 65bd aa0e bdbc ab25 c8bc 7398 c9bd
000000d0: 871c a43c 1949 8ebc 25c8 9bbd bb5a 203d
000000e0: 1ffd 0bbd 8c57 2cbd 316b aabd ecad 753e
000000f0: fe82 4cbd 405f 63bd 6456 19bd f756 fc3d
00000100: c220 9e3b 1e1b 36bd fd37 a9bd 62df 07bb
00000110: b539 7f3c 4a15 45bd 5396 aabd 293f bcbd
00000120: c681 fa3d 2345 b4bd 45ff a2bd 6379 b7bc
00000130: 2d27 c53b 5679 f1bc afff 273d a206 debd
00000140: 9177 00bd b025 ce3c fd32 f83c 684d ce3c
00000150: 9325 c93d fa7f 023e 4f11 d63b 69c2 b33c
00000160: cdf2 c1bd 72a3 d93c 31a7 f93c 3d05 1abc
00000170: 8283 813d b662 7e3d 987a 24bd e3a3 aabd
00000180: c6fd cbbd b463 bbbd a887 f8bb 4e89 4f3d
00000190: c810 bfbd 7eec e93c dfcb b8bc 4ea2 a53d
000001a0: 5bc4 9f3d 0bb2 d239 fdc9 5c3c 4e25 83bc
000001b0: 0a38 f03d 5e82 7cbc 4a37 0cbd e1d8 243e
000001c0: 67cf 6ebc 6757 b8bd 2187 8d3d e50e 43bd
000001d0: d0a9 46bd b0b1 1d3d 726b febc 7111 94bd
000001e0: 75a0 3fbd 407a 75bc d2f4 05bd 77af 3c3c
000001f0: c77d 9dbd 902e 3ebd d23c 5a3d 80c4 5e3d
00000200: 0900 32bc 5883 aa3c fbc4 54bd cacb 0a3d
00000210: 69c2 c33c 3fba 07bc ebe1 65bd a857 f9bc
00000220: 862b b0bb 913c d33d de3f b83d 0e85 b63d
00000230: 6d84 3b3d 4e56 19bd 38db 80bd 2a24 91bd
00000240: 704c eb3d df11 2eba d921 5dbd 944d 123d
00000250: abfc a53d 31c8 9c3d 01bf 853d 8720 0abd
00000260: eeb9 d43d f68e 023d c7c4 a4bd d7cd b7bd
00000270: de71 6fbd 635e 15be 07ff 5abd d9db 0cbe
00000280: b5c1 d2bd 5cb5 9f3c bc71 46bd 14f0 943c
00000290: ac2f 093e 4dc8 003e c121 083c 62f2 28bd
000002a0: 3258 cbbd 1007 91bd 13b0 2f3d cd91 d33c
000002b0: d19d 003e 7d1d 843d 5221 733d f354 9d3c
000002c0: 5daf 213c 4d5a c83c 3025 2b3d 5149 06be
000002d0: 182f 66bd 15f1 493d 81a6 c83c 1009 b7bb
000002e0: ef49 3c3d a47b 183d d42c c0bb c107 f43c
000002f0: 6a95 fcbd b0ee bbbd e05f 9ebd 4ebe a6bc
00000300: 0010 dd3d 3c97 a03c bd79 bd3c a92f 053e
00000310: 178a 853d 8e9e 943d 5a18 fd3c 75fe cabd
00000320: 3e1a ffbd 7947 713b 518f 9dbd b520 62bc
00000330: 175b 0ebd cc49 63bc d020 d5bd a7d8 ff3c
00000340: 52dc 443c 76d4 503d f4de b3bc e923 133e
00000350: 259d 983d d1f5 1d3b 7aee a93c 0e6d 093d
00000360: 250a fb3c 3f90 14be 3833 5b3d 1886 c9bd
00000370: 7211 b6bc ff62 a63d dc7e 3d3c 02d5 21bd
00000380: ce1b a73d ff5a 65bc c79e a33d 844c 7dbd
00000390: 93c2 9abd d7c8 eb3d ea3b 983d 6517 e9bc
000003a0: b08c cfbd 1ca8 9f3c 2c68 263c d732 af3c
000003b0: 7ad2 a2bd a1c1 4fbc b693 b43b a8e6 a53d
000003c0: 8bf1 c8bd 870f 873c 1122 93bd 4c69 8d3d
000003d0: 3011 d63d 0f70 99bd 1ec9 b23d 6ea8 933d
000003e0: 0083 8fbd 6bdc d33c ea67 bc3d 9627 143c
000003f0: 3eb1 a33d 7fa8 743d 9a54 953d a6e7 c73d
0.012079497 0.061956704 -0.13257302 -0.1296013 0.08395423 -0.018999927 -0.009803951 0.032221712
-0.028858187 -0.04460531 -0.04203872 -0.02470534 0.009221796 0.027266262 -0.13843894 0.059051182
0.051012006 -0.07193095 -0.13491204 -0.04009149 0.057650182 0.044785168 -0.025487995 0.11109691
-0.14189644 -0.011636184 -0.07068453 0.01717139 0.006435569 0.08511727 -0.03178626 -0.034481112
0.11558096 0.10983116 -0.055366993 0.13097236 0.009061539 0.005756893 -0.027657568 0.053996112
0.062995814 0.037613936 -0.102971025 0.10481446 -0.040179726 -0.051177777 0.04202694 0.13223335
-0.05611948 -0.023078281 -0.024432024 -0.098435305 0.020033134 -0.01736884 -0.07606534 0.039149027
-0.034176942 -0.04207568 -0.083212264 0.23992127 -0.04992961 -0.05551076 -0.037435904 0.12321275
0.0048256824 -0.044459455 -0.08262632 -0.0020732512 0.015577723 -0.048116006 -0.08329453 -0.09191734
0.122317836 -0.08802249 -0.07958845 -0.022396749 0.006016633 -0.029476803 0.041015323 -0.10841109
-0.031364027 0.025164455 0.03029775 0.025183395 0.0982162 0.12744132 0.006532825 0.021943288
-0.09470139 0.026567195 0.03047523 -0.009400663 0.06323911 0.062105857 -0.040155977 -0.0833204
-0.09960513 -0.09149876 -0.007584531 0.050668053 -0.09329373 0.028555151 -0.02255815 0.08087598
0.07801124 0.00040186974 0.013475892 -0.016009 0.117294386 -0.015411941 -0.034232415 0.16098358
-0.014575816 -0.09001046 0.069105394 -0.047621626 -0.04850179 0.038499534 -0.031057093 -0.07229889
-0.046783883 -0.01498276 -0.032704182 0.011516443 -0.07690006 -0.046431124 0.05328066 0.054386616
-0.010864266 0.020814583 -0.051945668 0.033885755 0.023896413 -0.008284151 -0.056123655 -0.030437306
-0.005376282 0.103142865 0.08996557 0.08912097 0.045780588 -0.037435822 -0.06291813 -0.07086976
0.11489189 -0.0006640236 -0.053987358 0.035718516 0.08104833 0.07655371 0.06530572 -0.033722427
0.10387026 0.03187462 -0.08045345 -0.08974808 -0.0584582 -0.14586787 -0.05346587 -0.1375574
-0.10290853 0.019495659 -0.04844831 0.018180884 0.13397092 0.12576409 0.008308829 -0.04124678
-0.09928931 -0.07081425 0.042892527 0.02582636 0.12560202 0.06450937 0.05935795 0.019205546
0.00986847 0.024457121 0.04178351 -0.13113905 -0.056197256 0.04930218 0.024493458 -0.005585797
0.045968946 0.037227288 -0.005864719 0.029788854 -0.12333186 -0.091763854 -0.077331305 -0.020354416
0.107940674 0.019603364 0.023129338 0.13006462 0.06520479 0.072568044 0.0308954 -0.09911815
-0.12456177 0.0036816283 -0.07693351 -0.013801743 -0.03475484 -0.013872575 -0.10406649 0.031231238
0.012015419 0.05098387 -0.021956898 0.14369167 0.07451848 0.0024102817 0.020743597 0.03355127
0.030644486 -0.1450815 0.053515643 -0.098400295 -0.022225115 0.08124351 0.01156589 -0.03950978
0.081596 -0.013998746 0.07989269 -0.06184055 -0.07556643 0.115129165 0.07433303 -0.028453538
-0.10134256 0.01948934 0.010156672 0.021386547 -0.079503015 -0.012680442 0.0055107726 0.08100635
-0.09811696 0.016486896 -0.07184232 0.069048494 0.10452497 -0.074920766 0.08729766 0.0720986
-0.07007408 0.02586194 0.091995075 0.009042641 0.07992791 0.059731003 0.07291527 0.0976098

network.2.bias f4 [256]
00000000: c25d 913d 19dd c63c 17bd ae3c a3fe 0fbc
00000010: de3a 4ebd 647d b53c e120 8dbd 2ebb edba
00000020: 4325 70bd 276a a3bc 9394 2c38 223f 7ebd
00000030: da9c 55bd 2181 973d d0e1 bfbd d656 f5bc
00000040: c133 123d 6ee2 353b 0daa ef3c 2c21 503d
00000050: 30bb e93a a5c0 803d 9adf 1cbd c5ab 6d3c
00000060: b3de 553d 334e b4bd f2be 6c3d bc45 a13d
00000070: bfb9 bd3b 8604 833b 1e65 103d c17e a1bd
00000080: 268b 81bd 535f d6bc 1893 e8bd 3792 863d
00000090: 1bb8 9ebd 29ae be3b ee1f 71bc 6a26 0b3c
000000a0: 5ba2 d3bc fc4c 243c fafd d0bc 16db 2f3d
000000b0: 799d 9839 b784 4fbd 8f17 36be e048 10bd
000000c0: c8fa 473d 4195 80bd 1a75 4cbd 5a52 9f3d
000000d0: 2c5d 2b3d 4847 9a3c a0bb c83d 9589 a2bc
000000e0: cbe4 55bc 011e 37bd e8a6 0d3e 1c38 f83d
000000f0: 6694 efbd c8d4 1cbc 221e d5bb 988a 0e3d
00000100: 7a9d 263d ce02 583d e74c 0bbc af0c c9bd
00000110: 904f 53bd d86b 023d bcc3 3f3d d88c 9abd
00000120: edde 3f3d 4da1 c73c 4ea0 46bd d0d0 9d3d
00000130: c67d 4bbd 8b24 7b3d caa3 74bc 1f55 a83d
00000140: 757b 73bd f66f 9b3c f1e6 353d f2d1 f2bc
00000150: a5b4 c5bb 8429 5cbd 6d26 433d b6a4 b4bd
00000160: 5fd8 df3d be98 4c3d 6930 a33d 6000 3ebd
00000170: ebce a13c b969 92bd 67b6 4f3c 763f 5f3d
00000180: 0bfa 2dbd 3be5 e43c e554 99bd 63ad f43b
00000190: 970f a23d 135a 9e3d 7648 a4bd 03c8 21bd
000001a0: 8c19 e5bd 82ba 34bd 1a08 dfbd 5dc5 303d
000001b0: ffc4 04bd 55a8 a6bc 92e3 6b3d 7b29 4ebd
000001c0: 0035 02bd f685 b03d a275 903c de1e 483d
000001d0: 6bef 69bd 9978 06bd 66f9 1f3d 4c43 e43d
000001e0: dcae 64bd 162c 26bd 9c7c 08be 3789 e73d
000001f0: 13ad 093d c587 8a3c 3db6 0f3d 3ef7 86bd
00000200: 8ce9 37bd 834a 2f3d 75cc 353b f0d1 963d
00000210: 6b1d c2bd 86e5 0b3e 4676 a2bd ac96 523d
00000220: c9d3 fabd 166d b1bd 1a45 eb3d 98ff cf3c
00000230: a099 803c a020 b8bd 6902 783d 0894 923c
00000240: 4ccd 433d bc39 2d3d 5b83 f7bd 6f40 9a3d
00000250: fdb5 bfbd 651c 98bc 599c eabd 144b aabd
00000260: 2bb2 8dbd c387 b0bd 0879 b63d 30f8 deb9
00000270: fa86 1dbd bb4e 80bd 9c87 c33c 532f 96bd
00000280: 9a70 823d 1d75 38bd d389 eb3c 1c4d 0e3d
00000290: 14e8 57bd c372 93bd f4c9 c2bc 7c21 0cbe
000002a0: ff17 ce3d a1d5 e23c 8c83 cb3c 1b01 a0bc
000002b0: 1308 eebd c0bf febd d1ad 043c f3f6 9f3d
000002c0: c091 b5bd e4b8 bdbd d241 173d 61f8 f23c
000002d0: f910 343e 74c3 253d ad57 6b39 de3f 55bd
000002e0: 4e8e 753d 6873 9dbc ed74 843d 3ab1 7ebc
000002f0: 27d1 ed3c 3bc4 ef3d 03b7 a7bd 12fe a03d
00000300: 05a2 293d 289e b53d 68a4 4c3d dc8f 723c
00000310: 1128 c93c 4062 95bd f07f 4b3d c436 6bbd
00000320: c90d 133e 263c 9e3d 40c2 35bd 3e32 18bc
00000330: 915a bd3d 71cb 95bc 7a8b c4bd c48b 0c3d
00000340: 3cd7 82bc 7d6a a1bd cde4 f73c 3cd1 913d
00000350: cea0 4cbd 1a88 49bd 4b7a 0abc 4e4c 383d
00000360: 7006 633d 26a6 9fbd 7d2e 61bd 1f69 75bd
00000370: 1398 8cbc b4e6 a43d 8c82 fcbc ed64 d83d
00000380: 4d7e cdbb f437 c23d a64c ad3d 1128 a8bc
00000390: 9bdd 853c 84ea 613c 7151 5cbd 8273 093c
000003a0: 9713 e3bd 5e4e a73d 1206 403d 73c3 f53c
000003b0: 533d 9abc b4de 69bd 0604 c23d f365 0bbd
000003c0: 7d15 3cbd d1a2 183d 7f7d 9fbd 7661 0cbd
000003d0: 0178 f6ba 4c04 dbbd 940d d3bd a099 743c
000003e0: 9d93 cd3c 53dd dabd 0c42 81bd fabc d2bc
000003f0: 1a78 4e3d b2c6 863d 2d24 2dbd 2968 adbd
0.07097961 0.02427535 0.0213304 -0.0087887375 -0.05034911 0.022154517 -0.06891037 -0.0018137449
-0.058629286 -0.019948078 4.1146366e-05 -0.062071927 -0.05215154 0.07397676 -0.09369242 -0.029948633
0.035693888 0.002775337 0.029255891 0.050812885 0.0017832275 0.06286744 -0.03829918 0.014506285
0.052214336 -0.08803978 0.057799287 0.07874629 0.005789965 0.003998342 0.035252683 -0.078855045
-0.063253686 -0.026168501 -0.11356181 0.06570857 -0.07749959 0.0058191014 -0.014717085 0.008493045
-0.025834253 0.01002812 -0.02551173 0.042933546 0.00029109025 -0.050663676 -0.17782424 -0.03522575
0.048823148 -0.06278468 -0.049916364 0.07779379 0.041836902 0.018832818 0.09801412 -0.019840995
-0.013055037 -0.04470635 0.13833201 0.12120077 -0.11698227 -0.009572215 -0.0065038363 0.034800142
0.040677525 0.05273705 -0.008502222 -0.09816872 -0.05158955 0.03184113 0.046817526 -0.07546395
0.046843458 0.024368906 -0.048492722 0.077058434 -0.049680494 0.061314147 -0.0149316285 0.082193606
-0.05944391 0.018974286 0.044409696 -0.029641125 -0.0060334974 -0.05375053 0.047644068 -0.088204786
0.109299414 0.049950354 0.07968218 -0.046387076 0.019751986 -0.07149071 0.012677765 0.05450388
-0.042474788 0.027941337 -0.074868955 0.0074669584 0.0791313 0.07732024 -0.08021633 -0.039497387
-0.11186513 -0.04412318 -0.10890217 0.04315697 -0.032414433 -0.020343939 0.057590075 -0.050332528
-0.031788826 0.08619301 0.017634217 0.048857562 -0.057113092 -0.032829855 0.039056204 0.11145648
-0.05583082 -0.040569387 -0.13328785 0.113054685 0.033612322 0.016910443 0.035085905 -0.065901265
-0.044900462 0.04279567 0.0027740274 0.07364261 -0.09478267 0.13661775 -0.07932715 0.051413223
-0.12247426 -0.086633846 0.114877895 0.025390431 0.015698254 -0.08990598 0.060549174 0.017892852
0.04780321 0.042291388 -0.12085601 0.07531821 -0.093608834 -0.018568227 -0.11455602 -0.08315101
-0.069187485 -0.086196445 0.08909804 -0.00042528054 -0.0384588 -0.06265017 0.023868375 -0.07333245
0.06369133 -0.045033563 0.028752243 0.034741506 -0.05271156 -0.071996234 -0.02377794 -0.13684648
0.10063171 0.027689757 0.024843 -0.019531777 -0.11622634 -0.12438917 0.008098082 0.07810774
-0.0886569 -0.09263781 0.036928006 0.029659452 0.175846 0.0404696 0.00022444008 -0.05206286
0.059950165 -0.019220069 0.06467614 -0.015545184 0.029030396 0.1170735 -0.081892036 0.0786096
0.04141428 0.088680565 0.049961478 0.014804807 0.024555238 -0.0729413 0.049682558 -0.057425275
0.14360727 0.07726316 -0.044374704 -0.009289322 0.0924579 -0.018285485 -0.095969155 0.03431298
-0.015971772 -0.07881639 0.030260468 0.071199864 -0.049958043 -0.049202062 -0.0084520085 0.044994645
0.05542606 -0.07795362 -0.054975975 -0.059914704 -0.017162358 0.08051816 -0.030823968 0.10566125
-0.0062711597 0.094833285 0.08461885 -0.020526918 0.016341021 0.013788823 -0.053788606 0.008389356
-0.11087721 0.08169244 0.04688079 0.030000424 -0.01882807 -0.057097152 0.09473424 -0.034032773
-0.04591893 0.03726465 -0.07787608 -0.034272633 -0.0018804074 -0.10694179 -0.10305324 0.014929205
0.025094802 -0.106867455 -0.063114256 -0.025724877 0.050407507 0.06580867 -0.042270828 -0.084671326

network.4.weight f4 [128, 256]
00000000: d6f7 013d e4ba 1fbc 3d9b 173c 6d3b dc3d
00000010: 0a14 ec3d b12b 88bc bc4f 3d3e 76ea 25bd
00000020: 89f7 9f3d ea99 823d ff50 25bd 628c 443e
00000030: 8814 b3bd b058 acbd 1a5a 4d3e 4178 c43b
00000040: 8e38 933d 4037 efbb e97c 09be 0251 b6bd
00000050: 5526 55bd e208 5dbe 5843 683b c4d7 f3bc
00000060: c0a0 dd3c 3e0f 473d 63cf a0bd 6854 febd
00000070: 2b0a 5a3d 5517 6fbd 39a1 e0bb e383 7b3d
00000080: 495f 153e 7417 673c f81c 9d3d ea42 07be
00000090: 83aa b33d 7194 ac3d 9a86 db3d a535 89bd
000000a0: a54a bfbd 5cb3 753d 7635 263c 390f d83c
000000b0: 44e8 05bd 587c 5d3d 2a38 ddbb fa49 67bd
000000c0: f240 83bc 1739 a73c f671 593e 1b1c 2bbd
000000d0: e842 9fbd 1243 923d f498 43bd b6c2 83bd
000000e0: ee6d 2b3e 53b7 2b3e 4e9b 4abe 1b10 7ebd
000000f0: 5d59 163e 5994 853c 1441 db3d aef0 1abe
00000100: 72d9 733d 0297 9cbd 4486 1f3e 9b22 a73d
00000110: a356 b43d 86ef b8bd cf11 1dbc d361 f23c
00000120: 089b 0abc d100 1cbd 0002 223e bce5 663c
00000130: 1968 583c b15c cebc 3aba e9bc 6708 183c
00000140: 306c 13bd 06b9 1a3d 3308 323d 8e2a a73d
00000150: 2d81 693c 0048 c23d 8dfd 8ebd 9365 463c
00000160: a3c5 0dbe b532 37bd a071 93bd 9aae 973d
00000170: a6ae bbbc 4f67 e43c 8a6f 173d 8805 0fbe
00000180: aee8 d13c 4fda 86bd 8a31 063e a3d1 16be
00000190: c7cd 5fbc 028e bebc 3527 033e cafa ad3d
000001a0: 969a e73d 10f4 553d 17b0 233b e55e 04bc
000001b0: 8c1a dc3d 5bf6 493d 96b2 8bbc a22a 543d
000001c0: a516 bb3d 9c44 3fbe 9732 42bd 34f6 503d
000001d0: 2288 bc3d 6578 6fbc 921b d1bd 968a e7bd
000001e0: daad e33d 90cc 283e fe1f f43d 623e a7bc
000001f0: 06fb 02bd 7938 ce3c d3ce 6fbc 3b8e 983d
00000200: ec72 213c 7aa0 123d 5df3 a2bd f669 95bd
00000210: e996 1f3e 41e9 0cbd 7970 783d 6268 a8bd
00000220: 043d c63d 17fd 0b3e dfec 00be 6c3c 69bd
00000230: d7da 0bbe 551d ee3d 8b6b 07bc 8d27 d5bd
00000240: 6fb4 f6bd 623d 12be b4c0 e7bc bb5f bf3c
00000250: 8076 813e 89ae 3f3d 5c07 963d c901 233c
00000260: 566d 653c 61ca 8d3e a0a0 85bd 2816 acbd
00000270: 9cac 34bd 52af 603e 20ba 9dbc 54de 563e
00000280: 806e 84bc b5e8 ab3d 8e77 033d f354 2e3c
00000290: eefc b43d 6d28 153e 4670 543b 6ec3 013e
000002a0: 724d 313d 5c34 f3bc 1420 a8bd a9c8 073e
000002b0: d662 373e 78ea 823e 68df 1f3e 19a2 f7bd
000002c0: acec 3f3e 3c2c 87bc 3a13 0fbe 33df 23bc
000002d0: ce3c 4c3b 020b 87be 4159 cebc 1c56 253e
000002e0: 09c3 51be 901a 8ebc 2e24 1fbe 27fa 1abd
000002f0: fed6 3cbd b04f 27be 4405 b23b 5ba0 03be
00000300: 7579 8b3a 7c49 713c 6537 14bc aa41 dabc
00000310: 624f 183e 2d3f b23d 9d19 8f3d a71f 2f3d
00000320: 14d6 2cbe d0a2 96bd 2cf7 463d 3f2e 003d
00000330: 84d2 49be e019 9e3d 4344 0c3d 430e bfbd
00000340: 3e80 453d dcca 82bd ac57 a63c 2f56 ccbd
00000350: 2a27 9f3d 9cbd 5dbd cfcb 7f3d cf02 10be
00000360: d507 2fbe 8a42 e83d fdaf fc3c cd7c 003d
00000370: 50de 213e 214a a2bd 58eb af3d 5d7c 22be
00000380: 2177 963d 09c2 21bd b9bb 113b 4d14 cbbd
00000390: 4c40 8a3d ecdd 19bc 522f c93b 2388 e13c
000003a0: 130a a83d 75de 07be 1fbf 9dbb 1b0c 38bd
000003b0: 0623 023c f574 3fbd 7a5f e0bd 591a 4a3d
000003c0: 1c83 793e c3c9 7cbe fd92 8a3c b235 57bc
000003d0: 134a 033e 5d6a 323e b2f8 f13c a530 ee3c
000003e0: a216 f0bc 5a4f d83d 082b 9f3d 54bc d83c
000003f0: b9b2 833c 2e68 7a3d 0564 cabc 0064 a23d
0.031730495 -0.009749148 0.00925332 0.10753522 0.1152726 -0.016622396 0.18487448 -0.040506802
0.078108855 0.06377013 -0.040360447 0.19194177 -0.087441504 -0.08415353 0.20053902 0.0059957807
0.07188521 -0.0073002875 -0.13426556 -0.0890217 -0.05203851 -0.2158542 0.003544053 -0.029765971
0.02705419 0.04859852 -0.07852056 -0.12418443 0.053232353 -0.05837186 -0.0068551567 0.061405074
0.1458713 0.014104713 0.07671541 -0.1320912 0.08772757 0.084267505 0.107190326 -0.06699685
-0.09340409 0.059985504 0.010144582 0.026374446 -0.03269221 0.05407366 -0.00675108 -0.056467034
-0.01602218 0.020412965 0.21234879 -0.04177485 -0.07776433 0.07141699 -0.04775329 -0.064336225
0.16741154 0.16769151 -0.19785807 -0.062027078 0.14682527 0.01630609 0.10705772 -0.15130875
0.059533544 -0.0764599 0.15578562 0.08160897 0.08805587 -0.090300605 -0.009586765 0.029587662
-0.008459814 -0.038086716 0.15821075 0.014092859 0.013208413 -0.025190683 -0.028531183 0.009279347
-0.035991848 0.03777411 0.04346485 0.081624135 0.014251989 0.09486389 -0.06981955 0.012109178
-0.13844924 -0.044726092 -0.071994066 0.074063495 -0.022910427 0.027881293 0.036971606 -0.13966954
0.025623646 -0.06584608 0.13104835 -0.14728408 -0.013659901 -0.023261074 0.12807925 0.084951
0.11308782 0.05223471 0.0024976784 -0.008079265 0.10747251 0.04930721 -0.01705293 0.05179847
0.091351785 -0.18678516 -0.047411527 0.051016048 0.09205653 -0.014616107 -0.10210337 -0.1130573
0.11117144 0.16484284 0.119201645 -0.020415489 -0.031977676 0.025173413 -0.014636713 0.07449003
0.00985406 0.035797574 -0.07956574 -0.07295601 0.15584911 -0.034402136 0.060654137 -0.082230344
0.096796066 0.13670765 -0.12590359 -0.05694239 -0.136577 0.116266884 -0.008265386 -0.10407934
-0.12046134 -0.14281228 -0.02829013 0.023361078 0.2528572 0.04679731 0.073256224 0.009949156
0.0140031185 0.27693465 -0.065247774 -0.084026635 -0.044109926 0.2194188 -0.01925379 0.20983249
-0.016165972 0.08393995 0.032096438 0.010640371 0.08837305 0.14566202 0.0032415553 0.12672207
0.04328675 -0.029688053 -0.082092434 0.1326014 0.17908797 0.2556951 0.15612566 -0.120914645
0.18742627 -0.016500585 -0.13972178 -0.010001945 0.0031164172 -0.26375586 -0.025189044 0.1614613
-0.20484556 -0.01734665 -0.15541145 -0.03783622 -0.04610347 -0.16338992 0.0054327566 -0.1285414
0.0010641055 0.014726993 -0.00904641 -0.02664264 0.14874032 0.08703456 0.06987307 0.042754795
-0.1687854 -0.07355273 0.048575565 0.031294104 -0.19709212 0.07719779 0.034244787 -0.09328892
0.048218004 -0.063863486 0.020305477 -0.09977376 0.07771142 -0.054135904 0.062450226 -0.14063571
-0.17092831 0.11340816 0.030845637 0.03136902 0.15807462 -0.07924295 0.0858981 -0.15867753
0.07346941 -0.039491687 0.0022237136 -0.099159814 0.06750545 -0.009391289 0.006139674 0.027530735
0.082050465 -0.13268454 -0.004814043 -0.04493342 0.007942921 -0.0467424 -0.10955711 0.049341533
0.2436642 -0.24686341 0.016915793 -0.013135361 0.12821226 0.17423387 0.029537532 0.02907593
-0.029307667 0.1056201 0.077718794 0.02645699 0.016076433 0.06113451 -0.024705896 0.0792923

network.4.bias f4 [128]
00000000: 6572 6cbd ae4e 1b3d ec88 843d 9672 d2bd
00000010: ab84 a3bd 391b ddbd 67c5 d339 d2d2 de3d
00000020: 16f0 19bc 5629 4d3d 326c a03d 9c0d fb3d
00000030: d9b6 e1bd 0f90 6abd 7913 1c3d dcdf 573d
00000040: 71aa 5abb d37f 98bc 10f1 213c afc7 f63a
00000050: aa2b babb 6a20 c0bd 1f03 aa3d 243b 893c
00000060: a422 bbbc 7d6b b53b 902a e53d 991d cc3d
00000070: 1386 aa3b 7867 dd3b 487e 223c ba45 2bbc
00000080: 7699 d8bd db44 5b3d 1223 8ebd 1b06 e83d
00000090: f18d 0dbd a49c c43d bdda 54bc b46f e6bd
000000a0: d81c 9f3c ec30 1cbc 5767 71bc ad9f 9fbd
000000b0: 6040 83bb daf0 013d a2bc 0bbb af82 17bc
000000c0: 46f7 b6bb 9797 ca37 d12c 883d 413e fa3d
000000d0: 6f79 a23d c543 cf3b 8777 343c 4fa0 98bd
000000e0: 14c8 8e3d 2e62 803c ab6e d6bd 7052 d3bd
000000f0: cbaa bf3d 96d2 c63b a7c3 c83d e1ef 1cbc
00000100: bfea d53d 2cdb aabc e24a b0bd 34fa dcbd
00000110: eac4 533c abc3 33bc c733 4abc 414b bbbd
00000120: f596 10bd 925c 863d c33b b13d 7600 cc3a
00000130: 9c12 a93d 5e3f 153d f898 873d 8cdd 1e3b
00000140: 8cba 11b9 e026 713c 2a34 7abd 118d d4bd
00000150: bfcf 883b e550 8dbb 4b5b adb9 9703 8f3c
00000160: 9ca0 afbd 6fae a5bd 969d b63d e1c8 e3bb
00000170: 3421 573b 2584 713d 34dc bb3d f25f 0ebe
00000180: 6020 0d3c 0ee9 d7bd 722c 23bd 99f0 863d
00000190: 4470 753d cf64 13bc 5a5f ca3c 1831 933d
000001a0: 794a a6bb 5e3f 823a 94f1 d23d 5e18 a93d
000001b0: e89a acbd 0695 643d 637a a73d 3665 f53c
000001c0: 600e 653a 5712 9b3c 6694 0ebb 4322 50bb
000001d0: 6f24 f03d e28e 8d3d 701f 923b 3656 8ebd
000001e0: 942c 85bd f811 f7bd ab21 0b3e 6a53 b4bd
000001f0: cb5a 94bd eaaa 3abd 28da 2c3d a6ce 7ebc
-0.057726283 0.03791683 0.06471428 -0.10275762 -0.07984289 -0.10796208 0.00040392132 0.108800545
-0.00939562 0.05008825 0.078331366 0.12258455 -0.110212035 -0.05726629 0.038104508 0.052703723
-0.003336575 -0.018615639 0.009884134 0.0018827821 -0.0056814747 -0.093811825 0.083013766 0.016751833
-0.022843666 0.0055364952 0.11189759 0.09966583 0.005203971 0.006756719 0.009917803 -0.010453636
-0.10576145 0.053532463 -0.06940283 0.113292895 -0.034559194 0.09600189 -0.012991604 -0.112517744
0.019422933 -0.009533148 -0.014734111 -0.077941276 -0.004005477 0.031723835 -0.002132215 -0.009247466
-0.0055836765 2.4150866e-05 0.06649173 0.12218905 0.07933318 0.0063252174 0.011014826 -0.074524514
0.069717556 0.015671816 -0.10470327 -0.10318458 0.09358748 0.0060675843 0.09802943 -0.009578676
0.10445165 -0.020856462 -0.08608033 -0.1078991 0.012925366 -0.010971944 -0.012341446 -0.09145213
-0.035300214 0.06560625 0.08653977 0.0015564102 0.082555026 0.036437385 0.06620973 0.002424094
-0.00013897772 0.014718741 -0.061084904 -0.10378469 0.004175156 -0.004312622 -0.0003306515 0.017457766
-0.08575556 -0.08089911 0.08916776 -0.006951437 0.0032826187 0.058963913 0.0917286 -0.13903788
0.008613676 -0.105424985 -0.03983731 0.06588859 0.059921518 -0.008996203 0.02470367 0.07187098
-0.005074796 0.0009937098 0.102999836 0.08256601 -0.084279835 0.055806182 0.0817764 0.029955488
0.0008737799 0.018929644 -0.0021755933 -0.0031758703 0.11725699 0.06912018 0.004459314 -0.06950037
-0.06502643 -0.12063974 0.13587062 -0.088049725 -0.0724388 -0.045573153 0.042200238 -0.0155521985

network.6.weight f4 [11, 128]
00000000: 6690 59bd 4d09 0abe 5d0f c9bc 2854 7cbd
00000010: dc72 633c 01c2 29be bf07 983d 5fa7 913e
00000020: a7a6 ca3b 6d1a 07be 3c0e 82bd f42f 863d
00000030: c605 86bd 3978 4e3e 1b62 5a3d 8930 9cbc
00000040: 3c20 c13a 3e5c 54bd 1062 243d c046 cbbc
00000050: cb85 68bd 88b0 303e cb81 043e 4716 31bd
00000060: 773d 2abe f15c 91bd fd2e 683e 6cf3 af3e
00000070: b31d d23d 5f57 063d 9795 0e3c 4b73 babd
00000080: 5c91 5bbe f69f 8e3e 0914 313c 6bf5 5f3e
00000090: 9f31 9cbd d035 243e 06e5 a03c bcfa 48be
000000a0: d8ef 473d 2497 a93c f648 8f3d 237e 84bd
000000b0: 7913 72bb 3a43 4fbd e1b9 06be 41be 843c
000000c0: 0ac5 1abe c3c6 a6bc e2a4 b43d e65f 593e
000000d0: 3cb6 423e 2621 ad3c dea3 033d 2c32 3ebd
000000e0: 077e febc 3eb8 d0bc df04 18bd 0c30 783d
000000f0: cc7d d33d 1c0f 9a3d 6c7d 98bc 0ef2 cd3a
00000100: 9f54 0b3e 2b48 18be fe02 e03d 5c41 1fbc
00000110: 76a4 9d3d 2ea9 ebbc 6836 8b3a ba6f f6bd
00000120: 46de aa3e c730 b43d 9bee fb3d 5701 c83d
00000130: 0a30 2fbc 06ab bdbb 188a 9a3d e7c6 2f3d
00000140: 010b aabd 7efc 283e 3c9f d13c 7ee8 3cbe
00000150: ce9c 7cbd 22d7 1cbd 4789 a73d 30bf fcbd
00000160: f158 383d 4dc3 953c 556a bb3e d13b bbbd
00000170: 1b55 d1bd 7445 973c 50b1 97bc 4e54 143e
00000180: 83cd 1b3d 1279 50be 2e5c 2b3e 53bf 593e
00000190: cbd6 db3b e4bb a5bd 7825 bd3d 1203 f63d
000001a0: 234e e3bd 2d6b b0bd f8b2 323d 0d35 443d
000001b0: a5d9 35be 6d1f 0bbe b3e1 613d 8aa1 723c
000001c0: 33b8 2a3d 6a84 793d 750e a4bd b874 c73c
000001d0: e221 933d 14f5 96bd dede 8f3d 51ba 06be
000001e0: 47f2 0fbe 4ece 2f3d bd62 ae3e dd3f 0ebe
000001f0: 3743 8dbc 100c 133d a045 503d 05c7 93bd
00000200: 11f4 49bd f69f be3d e1b9 13bd cb7c b9bd
00000210: 5b50 b03d 208e 4cbd 8d25 1c3e 1bdc 063e
00000220: fcb5 b53d b922 603d fee3 493d 181b b8bd
00000230: 3dc1 df3c ee4b b7bd 321a f1bb 44fb 1d3e
00000240: 7386 90bc 857c 11bb 59a5 5ebc 3006 69bd
00000250: fd71 91bd be9d 81be 702a eebd 269d e43d
00000260: ab4c 1e3e dd7b 84be 360b 91bd c681 ca3d
00000270: 9326 17bd e8b8 c8bd 3095 4fbd 0404 1abd
00000280: d6d1 483e 908b b93d 3af5 39bd 81bb 213c
00000290: b7cf 8c3d 0d0f 79bd 114c 4bbd aa93 0e3e
000002a0: 7443 413e e8d9 933d 2285 48be 5ffa a8bc
000002b0: e311 dc3d 579f f1bd 9e6d 8f3e 8564 98bc
000002c0: 7518 e4bd c905 503d 9c93 8abd 1789 4fbc
000002d0: 2732 f63c 6f57 53bd b2d7 753c 9875 b03b
000002e0: 9f23 813d 478b 623c de56 983d 54a8 92bb
000002f0: 5741 0fbe 987e 0dbc b92a 02be fa95 a0bc
00000300: 5ea0 3fbd 377b aabe 2af9 09be 2898 c43d
00000310: c7da 9c3d 18f2 5ebd e566 53bd 2a9b adbd
00000320: ff7b 93bd a48b 7c3c 7242 0b3e bdec e73d
00000330: a1cc b4bb 8b72 893c 9c0f 94bd e28d 9f3d
00000340: cb4d 3ebd 97ef 293e 6575 90bc 5b47 f5bc
00000350: ca3a a5bc ff3f 24be 9d87 6a3d f117 4c3c
00000360: 3df4 58be ea5a 06be 0c13 f9bd 5dd3 8fbc
00000370: 15b3 ad3d 4b0e 193d 11fa 4fbe 6bce 203d
00000380: 798f c33d bb01 44bc 3d0a 90be 1f84 8cbd
00000390: 6c91 debc 7d8e 9abd 14c8 c3bd 6c75 143e
000003a0: 9245 413d c738 6c3e 621f cabc 7d6b dbbc
000003b0: ff33 fdbd 921a 743d f36b 973c 3faa 133c
000003c0: ef24 44be 0255 473e 4082 cabc 7b3d a73c
000003d0: b923 ccbc 45d2 823d bf2e 7ebd 97a5 2fbe
000003e0: acb0 dbbc 73e3 ac3c 0617 613e a5d7 0ebe
000003f0: 01bf 1abe a6c6 b4bd 7d4e eb3d 3d7c 70bd
-0.053116225 -0.1348011 -0.024543459 -0.061603695 0.013882365 -0.16577913 0.074233525 0.28448007
0.0061844173 -0.13193674 -0.06350371 0.06552115 -0.0654407 0.20163049 0.053316217 -0.019066112
0.0014734338 -0.05184578 0.040132582 -0.02481401 -0.05676822 0.17254841 0.12940137 -0.043234136
-0.1662501 -0.07097805 0.22674175 0.34365404 0.10259571 0.032798167 0.008702657 -0.09104022
-0.21442169 0.27856416 0.010807999 0.21870963 -0.07626652 0.16036153 0.019640457 -0.19626898
0.048812717 0.020701952 0.06996338 -0.06469371 -0.0036937876 -0.05060122 -0.13156845 0.016204001
-0.15114227 -0.020358449 0.088205114 0.21227989 0.1901483 0.02113397 0.032138698 -0.046434566
-0.031065954 -0.025478479 -0.03711402 0.060592696 0.10326728 0.07522413 -0.018614493 0.0015712397
0.13606499 -0.1487128 0.10938071 -0.009720173 0.07697384 -0.028767195 0.0010621073 -0.12033029
0.33372706 0.08798366 0.1230137 0.097658806 -0.010692606 -0.00578821 0.075458705 0.042914297
-0.0830288 0.16502568 0.025588624 -0.18448064 -0.061672978 -0.038291104 0.081804805 -0.123411536
0.045006696 0.018281603 0.36604562 -0.091422684 -0.10221311 0.018465735 -0.018517166 0.14485285
0.038037788 -0.20358685 0.16734383 0.2126439 0.006708955 -0.08092478 0.09235662 0.12012304
-0.11098888 -0.08614192 0.04362771 0.047902156 -0.17758806 -0.13586207 0.055146884 0.014809022
0.041679572 0.060917296 -0.0801057 0.024347648 0.07184197 -0.07370964 0.070249304 -0.13157012
-0.14057265 0.042921357 0.34059706 -0.1389155 -0.017243965 0.035900176 0.05084765 -0.07215694
-0.049305025 0.09307854 -0.03606594 -0.090570055 0.086090766 -0.04994023 0.152487 0.13169901
0.088726014 0.054720614 0.049289696 -0.08989543 0.027313823 -0.08950029 -0.007357859 0.15427881
-0.017642235 -0.0022199464 -0.013589227 -0.056890666 -0.0710182 -0.2531566 -0.11629188 0.11162786
0.15458934 -0.2587575 -0.070822164 0.098880336 -0.03690202 -0.09800893 -0.050679386 -0.037601486
0.19611296 0.090598226 -0.045399882 0.009871365 0.06875556 -0.06080537 -0.04963309 0.13923517
0.18873388 0.07219297 -0.19582036 -0.020627199 0.10745599 -0.1179797 0.2801332 -0.018602619
-0.11137477 0.050786767 -0.067664355 -0.012666962 0.030053211 -0.051597055 0.015005039 0.005385112
0.06305622 0.013827152 0.074384436 -0.0044756327 -0.13989769 -0.008636139 -0.1271161 -0.019602764
-0.046783797 -0.3329713 -0.13473955 0.09599334 0.07658916 -0.054430097 -0.0516118 -0.08476861
-0.07201385 0.015414152 0.13599566 0.11324451 -0.0055175577 0.016778251 -0.0722954 0.07790734
-0.046460908 0.16595303 -0.017634103 -0.029941252 -0.020169634 -0.16040038 0.057258237 0.01245688
-0.2118692 -0.13120618 -0.12161836 -0.01755684 0.08481423 0.037367146 -0.20310237 0.039259356
0.095488496 -0.011963303 -0.2813281 -0.068611376 -0.027168952 -0.07546709 -0.09559646 0.14497918
0.047185488 0.23068534 -0.024673168 -0.026784653 -0.12363433 0.059595652 0.018484091 0.009012758
-0.19154714 0.19466022 -0.024720311 0.020415058 -0.024919378 0.06387762 -0.0620563 -0.17153011
-0.026817642 0.02110455 0.21981439 -0.1394945 -0.15111925 -0.08826952 0.1148958 -0.058712233

network.6.bias f4 [11]
00000000: d342 223c 631a 9d3c 24f9 2cbc f5e8 9e3c
00000010: 336e 43bc 2c4c d4bd 8948 823c 298c 0cbd
00000020: de52 e6ba 2b67 e43b 45c6 ac3a
0.009903627 0.019177621 -0.010557447 0.019398192 -0.011928129 -0.10366091 0.015903728 -0.034313355
-0.0017572304 0.0069703064 0.0013181648
